brass_classifier.tflite (tflite, 482892 bytes, 9 tensors)

sequential/conv2d/BiasAdd/ReadVariableOp f4 [32]
0	0xbc458ac5	-0.012057011
1	0x3c2f809d	0.010711816
2	0xbc1af441	-0.009457649
3	0x3c28776a	0.010282377
4	0x3bfd41a5	0.0077287727
5	0xbaf8553e	-0.0018946303
6	0xbc87b438	-0.016565427
7	0x3b6643c5	0.0035135609
8	0xbb48b43a	-0.0030625002
9	0x3c440791	0.011964695
10	0xbc75dec5	-0.015006726
11	0x3c8523f5	0.016252497
12	0x3b2f1a03	0.0026718385
13	0xbc4064e3	-0.011742803
14	0xbc4514e8	-0.01202891
15	0x00000000	0.0
16	0x3bd6c37b	0.006554065
17	0x3c23f0a4	0.010006104
18	0xbbdc8a14	-0.0067303274
19	0xbc74d75c	-0.014943924
20	0xbc0065fe	-0.007836817
21	0xbb27b84c	-0.0025592027
22	0x3c71e80e	0.014764799
23	0x3c6f7e58	0.014617525
24	0xbb9f479f	-0.004860833
25	0x3b9e5bb3	0.0048327087
26	0xbca8cee6	-0.02060647
27	0xbc809ba6	-0.015699219
28	0xbc5f3bfc	-0.013625141
29	0x3b840fc3	0.0040301993
30	0xbc7fc12a	-0.015610019
31	0xbad446ea	-0.001619545

sequential/conv2d_1/BiasAdd/ReadVariableOp f4 [32]
0	0xbbd23624	-0.0064151455
1	0x3baf7277	0.0053542214
2	0x3a722648	0.0009237272
3	0xbb6939ea	-0.0035587498
4	0x3c683073	0.014171707
5	0xbb30cfa5	-0.0026979235
6	0x3c024164	0.007950161
7	0x3aae3526	0.0013290986
8	0xbc478add	-0.012179104
9	0xbb7e2a0b	-0.0038782384
10	0xbc21b477	-0.009869686
11	0xbc2aad6d	-0.0104173245
12	0xbc1f7f05	-0.009734874
13	0x3b167400	0.0022957325
14	0xb8b63475	-8.688207e-05
15	0xbc075dc8	-0.008262105
16	0xbc33b1c6	-0.010967677
17	0x3ac8d359	0.0015321776
18	0x3c5a9962	0.013342233
19	0x3c33c25a	0.01097163
20	0xbc056431	-0.008141563
21	0xbbc00995	-0.0058605173
22	0xbc046db0	-0.008082792
23	0xbad6921d	-0.001637045
24	0xbc08f786	-0.008359795
25	0xbc8872aa	-0.016656239
26	0xbbd99585	-0.0066401386
27	0x3b7428c1	0.0037255737
28	0x3ba135f2	0.004919761
29	0xbc033aa5	-0.008009587
30	0x3c5165ee	0.01278065
31	0x3ab0c331	0.0013485906

sequential/conv2d_2/BiasAdd/ReadVariableOp f4 [32]
0	0xbcd35c8c	-0.025800966
1	0xbb49a20c	-0.0030766753
2	0xbc80aeb6	-0.015708309
3	0xbc56809e	-0.013092188
4	0x3ce13946	0.02749313
5	0xb9ad6958	-0.0003307562
6	0xbc8aa40b	-0.016923925
7	0xbca2b87d	-0.019863361
8	0xbbe85791	-0.007090517
9	0xbc9502d5	-0.018189827
10	0x3c0f12eb	0.008732538
11	0xbb579caf	-0.0032899787
12	0x3a04c6f3	0.0005065046
13	0xbc2e4428	-0.010636367
14	0xbcb43da3	-0.022002047
15	0xbcefd548	-0.029276505
16	0xbbe7c371	-0.007072859
17	0xbc659849	-0.014013358
18	0xbc9254e7	-0.01786275
19	0xba5f12be	-0.00085095677
20	0xbb9925d1	-0.0046736975
21	0xbc10514b	-0.008808444
22	0xbc2077b3	-0.0097941635
23	0xbc423dc3	-0.011855545
24	0xbc93ca7c	-0.018040888
25	0xbcba8c71	-0.022772046
26	0xbc85a9a6	-0.016316246
27	0xbbf5c2bb	-0.0075000203
28	0xbc851b75	-0.016248444
29	0xb92c1f8a	-0.00016414947
30	0xbc24e87f	-0.010065197
31	0xbc16ac24	-0.009196315

sequential/dense/BiasAdd/ReadVariableOp f4 [64]
0	0xbb8ced50	-0.004300751
1	0x3b9c6dd4	0.0047738347
2	0xbbab2b11	-0.00522364
3	0x3bdb249b	0.0066877133
4	0xbb2f5f68	-0.0026759747
5	0x3b89d6f2	0.0042065317
6	0xbb4f3de7	-0.003162259
7	0xb9cb7ef6	-0.0003881377
8	0xbb86f61a	-0.004118693
9	0x3af51a47	0.0018699848
10	0x3b1d49a6	0.0024000197
11	0xbb4f3d76	-0.0031622327
12	0xb80e9b07	-3.399982e-05
13	0x3b09ffa6	0.002105692
14	0xbba64cea	-0.005075087
15	0xbb0a0280	-0.002105862
16	0x3a7e482b	0.0009700085
17	0x3b77ba80	0.0037800372
18	0xbb835307	-0.0040077004
19	0xbb8e5032	-0.004343056
20	0xbb11b1e2	-0.002223127
21	0xbbb1d1ac	-0.005426606
22	0x3bfdd926	0.0077468334
23	0xbb0b84c0	-0.0021288842
24	0xbb5224b1	-0.0032065327
25	0xbc17f355	-0.0092743235
26	0xb9870a5c	-0.00025756925
27	0xba99ca87	-0.0011733331
28	0xbb3e93af	-0.0029079726
29	0xbbb2ceac	-0.005456766
30	0xbbcf1e10	-0.0063207224
31	0xbb41679b	-0.0029511217
32	0x3ba53a54	0.0050423536
33	0xbb8e17f6	-0.0043363525
34	0xbbc793ce	-0.0060906177
35	0xbb51c378	-0.0032007378
36	0x3bae0a17	0.0053112614
37	0x3b8ee3ec	0.0043606665
38	0xbb4c4510	-0.0031169094
39	0x3a14d01c	0.00056767627
40	0x3b940606	0.0045173196
41	0xbb4ef7a5	-0.0031580713
42	0xbbe68caa	-0.0070358114
43	0x3b6fd9e5	0.003659838
44	0xbbcef641	-0.006315977
45	0xbb4f3def	-0.0031622609
46	0xba8e45ce	-0.0010854544
47	0xbbf4e7ed	-0.007473937
48	0xbb4f3a7b	-0.003162055
49	0xbba277e5	-0.00495814
50	0xbbcf3d7c	-0.006324468
51	0xbb4f3deb	-0.00316226
52	0x3bd2e836	0.006436373
53	0xbb7492de	-0.0037318985
54	0xbb49c715	-0.0030788828
55	0xbb96fb8b	-0.004607623
56	0xbb90de46	-0.0044210283
57	0x3bac8965	0.005265402
58	0x3bace341	0.005276114
59	0x3ae96aaa	0.0017808278
60	0x38a03227	7.638736e-05
61	0x3bb5da84	0.0055497307
62	0x39e6d58c	0.00044028123
63	0xb8b7fc0d	-8.773068e-05

sequential/dense/MatMul f4 [64, 1568]
0	0xbd46e7e3	-0.04856099
1	0x3b3a439c	0.0028421646
2	0xbd3c8bab	-0.046031635
3	0x3a49dac0	0.0007700138
4	0x3d1f7713	0.038931917
5	0xbc82a18a	-0.015946168
6	0xbcb22be9	-0.021749454
7	0x3d07def2	0.0331716
8	0x3d24565e	0.04012143
9	0x3d4a3bad	0.049373318
10	0x3d6521ee	0.05594056
11	0xbd2cd03b	-0.04219077
12	0xbce8776b	-0.028377255
13	0x3bc1d320	0.0059150606
14	0x3d2987d7	0.041389313
15	0xbd5f8d48	-0.054578096
16	0x3cff6d96	0.031180184
17	0x3d18d856	0.03731569
18	0xbd60550d	-0.05476861
19	0x3b7a365d	0.0038179376
20	0x3ba85df0	0.0051381513
21	0x3d514310	0.051089346
22	0xbc8a796b	-0.0169036
23	0x3c4842a3	0.012222919
24	0xbd2751dd	-0.040849555
25	0xbc29ab0f	-0.010355725
26	0x3a69bcc8	0.0008916375
27	0xbd347f2c	-0.044066593
28	0x3d17bdb3	0.037046146
29	0xbbe60e82	-0.0070207724
30	0x3d71cb34	0.05903168
31	0xbd46d915	-0.04854687
32	0xbd077970	-0.033074796
33	0x3d1c8c2e	0.038219623
34	0x3b8f49df	0.00437282
35	0xbd6b278a	-0.057410754
36	0x3c776925	0.015100752
37	0xbcfc27fd	-0.030780787
38	0x3ae06873	0.0017120972
39	0x3b9bf468	0.00475936
40	0xbcaf982c	-0.021434866
41	0x3d39d85c	0.045372352
42	0xbcd119ac	-0.025524937
43	0xbc9e3984	-0.019314535
44	0x3c71e79c	0.014764693
45	0xbcbf657b	-0.02336382
46	0x3cb7a949	0.022419589
47	0x3d39ce61	0.045362834
48	0x3d56e5b0	0.05246514
49	0xbd2a8d81	-0.041638855
50	0x3c527431	0.012845085
51	0xbd21b240	-0.039476633
52	0xbca12f39	-0.019675838
53	0xbc97a3b6	-0.01851068
54	0x3d0f4294	0.034975603
55	0xbd4c1f4c	-0.049834535
56	0xbd3bd095	-0.045853216
57	0x3c581407	0.013188369
58	0xbd730085	-0.059326667
59	0xbd22c378	-0.039737195
60	0xbc4f2281	-0.012642504
61	0x3d3454f5	0.044026334
62	0xbd3e93c8	-0.046527654
63	0xbd5aaa7a	-0.053385235
64	0x3baed53d	0.0053354786
65	0x3cc496c8	0.02399768
66	0xbd4f5a45	-0.050623197
67	0x3d1f8a1f	0.038950082
68	0x3d746b1b	0.059672456
69	0xbce113a5	-0.027475188
70	0xbd1820eb	-0.037140768
71	0x3c3c87f7	0.011507026
72	0xbc12e564	-0.008965824
73	0xbc7887f6	-0.015169134
74	0x3d592f45	0.053023595
75	0x3d6519ca	0.055932797
76	0x3be210c1	0.00689897
77	0x3cca2270	0.024674624
78	0xbd0bcc51	-0.0341304
79	0x3c92b7ca	0.017909903
80	0x3d42d150	0.047562897
81	0xbd5d460d	-0.054021884
82	0x3c9dba18	0.019253775
83	0xbd3187a1	-0.043342236
84	0xbd725fa4	-0.05917324
85	0x3cd4fda8	0.025999859
86	0x3cd28bcd	0.025701428
87	0xbd1f6fb0	-0.038924873
88	0x3c9d4ad0	0.019200712
89	0xbd3f39e4	-0.04668607
90	0x3a814247	0.0009861671
91	0xbc5607e1	-0.013063402
92	0x3d4434eb	0.04790203
93	0xbb64491b	-0.0034833613
94	0xbd26da9e	-0.040735833
95	0x3c923594	0.017847814
96	0x3d266ead	0.040632892
97	0x3ca83fb5	0.02053819
98	0xbd8a09ec	-0.06740174
99	0x3cdc166d	0.026866162
100	0x3d890a84	0.06691459
101	0x3b8e04de	0.0043340763
102	0xbd4ac436	-0.049503528
103	0x3ca03d62	0.01956052
104	0xbd07b18b	-0.033128303
105	0xbcbd77fc	-0.023128502
106	0xbd286c8b	-0.04111914
107	0x3d48a5c1	0.0489862
108	0x3d464423	0.048404824
109	0xbd3cbb09	-0.046076808
110	0x3c59b36b	0.0132874055
111	0xbd1ce485	-0.03830387
112	0xbc986fc4	-0.018607982
113	0x3cf73081	0.030174496
114	0xbcccd7fd	-0.025005335
115	0x3cbd1947	0.023083342
116	0x3c3d99f3	0.011572349
117	0xbd3f05e8	-0.046636492
118	0xbb1e7954	-0.0024181204
119	0x3d2f3b62	0.04278124
120	0x3affe0c8	0.0019521946
121	0x3d05d18f	0.032670554
122	0xbcbe2dde	-0.02321523
123	0x3d473f79	0.048644517
124	0xbd2510d8	-0.040299267
125	0x3d24f509	0.040272746
126	0xbcd8f4ad	-0.026483858
127	0xba9a3d80	-0.0011767596
128	0xbd282b3e	-0.041056864
129	0x3d709a27	0.05874076
130	0x3cd75e35	0.026290039
131	0xbd05b438	-0.032642573
132	0xbcf8d854	-0.03037659
133	0xbd1606f2	-0.036627717
134	0x3d11355f	0.03545129
135	0xbd82b9d7	-0.063831024
136	0x3c8aadd3	0.016928589
137	0xbd77d927	-0.060509827
138	0xbd247bb1	-0.040157024
139	0xbcb4ac58	-0.022054836
140	0x3d9407e5	0.07228068
141	0xbcae5468	-0.021280482
142	0xbcce3ecd	-0.02517643
143	0x3d3b9a16	0.045801245
144	0xbc7a32ce	-0.015270902
145	0xbd605163	-0.054765116
146	0xbcf2f460	-0.029657543
147	0xbbde51f4	-0.006784672
148	0x3cf4d1f1	0.029885264
149	0xbc2bf53e	-0.010495482
150	0xbd0e2fc3	-0.034713518
151	0xbc558714	-0.013032693
152	0xbb204f5e	-0.002446137
153	0xbd2d9148	-0.04237488
154	0x3d40b4de	0.04704749
155	0x3d49575f	0.04915559
156	0x3bd9a1b3	0.0066415905
157	0xbc08d1e2	-0.008350821
158	0x3d806d54	0.06270853
159	0xbd6e14d1	-0.05812532
160	0x3d823711	0.06358159
161	0x3d96a7f6	0.07356255
162	0xbc994222	-0.018708292
163	0xbc6d5864	-0.014486406
164	0xbc73635f	-0.014855235
165	0x3bff3516	0.0077883108
166	0x3d64ee1e	0.05589115
167	0xbd18b28d	-0.037279654
168	0x3d4a91fb	0.049455624
169	0xbd68f060	-0.056869864
170	0xbc99dfd0	-0.01878348
171	0x3d2b7777	0.041861977
172	0x3cc6c388	0.024263158
173	0x3d44ec9e	0.04807722
174	0x3c406b73	0.011744368
175	0xbd2292e5	-0.03969087
176	0xbc8b2f42	-0.016990308
177	0xbd23e805	-0.040016193
178	0x3d6001f8	0.054689378
179	0xbcb7afa7	-0.022422625
180	0x3d7822fa	0.06058023
181	0x3914961b	0.00014170299
182	0x3d606524	0.054783955
183	0x3c4f4eba	0.012653047
184	0x3d3932d2	0.04521448
185	0xbd3596dc	-0.044333324
186	0xbd267660	-0.040640235
187	0xbbdec97c	-0.006798921
188	0xbc1a4ca8	-0.00941769
189	0x3c955bd8	0.018232271
190	0xbd1a58e4	-0.03768243
191	0x3d21f826	0.039543293
192	0x3b93518b	0.0044958047
193	0xbd64ea13	-0.055887293
194	0xbd4d8ee6	-0.050185107
195	0xbb288b26	-0.0025717705
196	0x3d5c81da	0.053834774
197	0x3c8c82b1	0.017152162
198	0x3d4780a0	0.04870665
199	0x3b85fbd4	0.004088858
200	0x3d69068e	0.056891017
201	0x3cba6fa7	0.022758318
202	0x3cfc7e64	0.030821986
203	0x3d2cd4cc	0.042195126
204	0xbc71069d	-0.014711049
205	0xbd0b8760	-0.03406465
206	0x3cb38fa0	0.021919072
207	0x3d7f392e	0.06231039
208	0xbb829bd6	-0.0039858622
209	0xbd218de4	-0.039441958
210	0x3d1aa799	0.03775749
211	0x3cf597c1	0.029979588
212	0xbd52fb45	-0.05150916
213	0xbab3949f	-0.0013700909
214	0xbcd3135b	-0.025766065
215	0x3cb488b8	0.022037849
216	0x3ccb404f	0.024810938
217	0xbc0e8695	-0.008699079
218	0xbd3124b6	-0.0432479
219	0xbd472d0c	-0.048626944
220	0xbd3bf12e	-0.045884304
221	0xbc537f40	-0.012908757
222	0xbc16de9f	-0.00920835
223	0xbd592041	-0.053009275
224	0x3c75981b	0.014989878
225	0xbcda81ef	-0.026673285
226	0x3d6251d7	0.05525383
227	0xbcc1f868	-0.02367802
228	0x3b1ecf9d	0.0024232634
229	0xbd783ffe	-0.060607903
230	0xbc8fbd0a	-0.017546196
231	0x3d3c51b8	0.04597637
232	0x3d1cd7dd	0.0382918
233	0xbd6cc52c	-0.057805225
234	0x3d4188b2	0.047249503
235	0x3c9f87ea	0.019473989
236	0x3d19a5b0	0.037511528
237	0x3d0225e8	0.03177443
238	0xbd4586f0	-0.04822439
239	0xbc37aa20	-0.011209995
240	0xbd446815	-0.047950823
241	0x3d795953	0.0608762
242	0xbc991914	-0.018688716
243	0x3d3f138f	0.046649512
244	0xbc33cc56	-0.01097401
245	0xbca91d31	-0.020643802
246	0x3d37fa11	0.044916216
247	0xbd46734e	-0.048449807
248	0xba464cf9	-0.00075645704
249	0x3d100ca6	0.035168312
250	0x3d5026b4	0.05081816
251	0x3d89e8d8	0.067338645
252	0x3cd2d40c	0.025735877
253	0x3d3b4742	0.045722254
254	0x3d8d3e87	0.06896692
255	0xbc64f4b7	-0.01397436

sequential/dense_1/MatMul f4 [1, 64]
0	0xbe53819c	-0.20654911
1	0x3e0e2e6b	0.13884895
2	0x3d9a3bc5	0.075309314
3	0x3e9077b4	0.28216326
4	0xbe8ee7b7	-0.2791116
5	0x3d3a8ee8	0.045546442
6	0x3e439b27	0.19102155
7	0xbd472ef7	-0.048628774
8	0x3df46da9	0.119349785
9	0x3de288d0	0.11061251
10	0x3e8ff143	0.28113756
11	0x3dad3a1a	0.084583476
12	0xbdba096c	-0.09083828
13	0x3e4cb10d	0.19989415
14	0x3b260113	0.002533023
15	0x3de31776	0.11088459
16	0x3e0c1055	0.13678105
17	0x3e260f85	0.16216858
18	0x3d42eaf3	0.047587346
19	0x3d769d72	0.060208745
20	0x3e3611dd	0.17780252
21	0xbe430e35	-0.19048388
22	0x3dc8e5ec	0.09809479
23	0xbdefa18a	-0.11700733
24	0xbe79c9dc	-0.2439341
25	0x3e7769f3	0.2416151
26	0xbe9260b9	-0.2858942
27	0xbdffeb7c	-0.12496087
28	0xbe65c2a1	-0.22437526
29	0x3e70d971	0.23520447
30	0x3e3c4887	0.18387042
31	0xbc2c6a4e	-0.010523392
32	0x3e9c5a1b	0.30537495
33	0x3e8a624d	0.27028123
34	0x3e09850c	0.1342966
35	0xbe2f16de	-0.17098567
36	0x3dfc5fa7	0.12322932
37	0x3e3e8078	0.18603694
38	0xbddadbe6	-0.106864735
39	0xbd77a26b	-0.06045763
40	0x3daebd2c	0.085321754
41	0xbe285fbf	-0.16442774
42	0xbe0b0247	-0.13575087
43	0x3e96e968	0.2947495
44	0xbe33959a	-0.17537537
45	0x3e90b584	0.28263485
46	0xbe562eb6	-0.20916256
47	0xbdf6b24b	-0.120457254
48	0x3dee61e9	0.11639769
49	0xbe82fa2c	-0.2558149
50	0x3e86b937	0.26313183
51	0x3e04889b	0.12942736
52	0xbdab777a	-0.08372398
53	0xbe5d5cc5	-0.2161742
54	0xbe89ffb6	-0.26952904
55	0xbde9b668	-0.11411744
56	0xbe21879c	-0.15774387
57	0x3e034f7f	0.12823294
58	0x3e9dd555	0.30826822
59	0xbe626b2b	-0.22111194
60	0xbd83f7f3	-0.06443777
61	0x3e13bc81	0.14427377
62	0x3e104542	0.1408892
63	0xbe81b717	-0.25335

sequential/conv2d/Conv2D f4 [32, 3, 3, 3]
0	0xbbe9529c	-0.0071204435
1	0x3d59ab1b	0.053141695
2	0xbbaf5b57	-0.0053514647
3	0x3dca95ad	0.0989183
4	0xbe07d61c	-0.1326527
5	0xbcdffa1f	-0.027340947
6	0x3d9f6244	0.077824146
7	0x3c2fd90f	0.010732903
8	0x3df42d1b	0.11922666
9	0xbdfc9f9f	-0.12335133
10	0xbcdbd0e3	-0.026833003
11	0x3dfee756	0.124464676
12	0xbd07782f	-0.0330736
13	0xbe103c3a	-0.14085475
14	0x3d6ce60a	0.05783657
15	0x3d8a86f4	0.067640215
16	0xbd822fb1	-0.06356753
17	0x3b5a68c3	0.0033326603
18	0x3dcaec8a	0.099083975
19	0x3d9c5d69	0.07635004
20	0x3dd7b349	0.10532243
21	0xbdabec61	-0.08394695
22	0x3d9b73d5	0.075904526
23	0xbc7050a6	-0.014667666
24	0xbc3ec411	-0.011643426
25	0xbbcba289	-0.006214444
26	0x3b86eb9c	0.0041174423
27	0xbcf08ed7	-0.029364986
28	0x3ddad0f4	0.10684386
29	0xbde00fcf	-0.10940515
30	0xbdfc0828	-0.12306243
31	0xbb211fe2	-0.0024585654
32	0xbda8fa67	-0.082508855
33	0x3d99fe4c	0.075192064
34	0x3d69b35e	0.057055824
35	0xbc97663e	-0.01848137
36	0x3c314cc1	0.010821522
37	0x3d426bcd	0.047466088
38	0x3d987a7f	0.07445239
39	0xbd182d58	-0.03715262
40	0xbbc368b4	-0.0059634093
41	0xbde09b20	-0.10967088
42	0x3cfa1e17	0.030531926
43	0xbd6d6829	-0.057960663
44	0xbda1777e	-0.078841195
45	0x3db35dd4	0.08758131
46	0x3c439300	0.011936903
47	0x3cf63b23	0.030057495
48	0x3db4dfd0	0.08831751
49	0xbd870f58	-0.065947235
50	0xbdb5e8bd	-0.08882282
51	0x3dfc51b9	0.12320275
52	0xbdd9be73	-0.106320284
53	0x3ddce154	0.107851654
54	0x3db44f3e	0.08804177
55	0x3dc4565e	0.09586786
56	0x3e01e363	0.12684397
57	0x3e0411c0	0.12897396
58	0xbd104041	-0.035217527
59	0x3cd9a0df	0.026565967
60	0x3c5136a9	0.01276938
61	0x3db7fc5e	0.08983682
62	0xbdcb3e6d	-0.09924016
63	0xbd83179f	-0.0640099
64	0x3c6ed29d	0.014576581
65	0xbe0fd49f	-0.14045952
66	0xbcd7215b	-0.026261022
67	0xbd92ec0b	-0.07173928
68	0xbbb8e103	-0.005642058
69	0x3c2166ab	0.009851138
70	0xbd8a983c	-0.06767318
71	0x3d045249	0.032305036
72	0x3d395712	0.045249052
73	0x3c25ca4a	0.01011903
74	0xbdf5e273	-0.120060824
75	0x3d529bbb	0.051418047
76	0x3da38e85	0.07986168
77	0x3e029bfb	0.12754814
78	0xbd9b688e	-0.075883016
79	0x3df67baa	0.12035306
80	0xbd66baf4	-0.056330636
81	0xbc33fd45	-0.010985677
82	0x3df1ffdd	0.1181638
83	0xbc3de49f	-0.011590152
84	0xbd4e292b	-0.05033223
85	0xbdff9d96	-0.12481229
86	0xbdad0ec6	-0.084500834
87	0xbb0b8002	-0.0021286015
88	0x3dad5241	0.08462954
89	0x3d054f2d	0.03254621
90	0xbd1fc834	-0.039009288
91	0x3dad5ed0	0.0846535
92	0x3cfd34bc	0.030908935
93	0xbd0267b5	-0.031837184
94	0x3c030f19	0.007999205
95	0xbdf405a8	-0.11915141
96	0xbdcc0e24	-0.099636346
97	0xbd0e0af5	-0.03467842
98	0x3dda0635	0.10645715
99	0x3d99f582	0.0751753
100	0x3db1f971	0.08690155
101	0xbc139f2d	-0.009010118
102	0xbdd2a769	-0.10285837
103	0x3c8451b6	0.016152244
104	0x3daf05a4	0.08545998
105	0xbcd6fcc5	-0.026243577
106	0x3d34a466	0.044102095
107	0xbd2f7c7a	-0.04284332
108	0xbcca04d8	-0.024660513
109	0x3dfe5929	0.1241935
110	0xbde51490	-0.111855626
111	0x3a8d1d43	0.0010766167
112	0xbc434416	-0.011918088
113	0xbb9c7bdb	-0.004775507
114	0xbdaf7e72	-0.085690394
115	0x3ca93ad8	0.020657942
116	0x3c8b7d5d	0.017027551
117	0xbd61e723	-0.05515207
118	0x3cc55c6d	0.024091924
119	0x3cf7bed9	0.03024237
120	0x3e0e2a7d	0.13883395
121	0x3ce6cb1b	0.02817302
122	0xbd939d82	-0.072077766
123	0x3d3038ac	0.043022797
124	0x3dcb8559	0.099375434
125	0x3b83f127	0.0040265503
126	0xbd91e8d8	-0.071244895
127	0x3e08c831	0.13357617
128	0x3db8f700	0.090314865
129	0x3d8695e4	0.06571558
130	0x3d2d3c06	0.04229357
131	0xbc261422	-0.010136636
132	0xbc0ee657	-0.0087219095
133	0xbdae0548	-0.08497101
134	0x3ba3c543	0.0049978807
135	0xbd29414d	-0.04132204
136	0x3c3f7fec	0.011688214
137	0x3dceccad	0.100976326
138	0x3e01ec25	0.12687738
139	0x3abac023	0.0014247935
140	0xbda0fa81	-0.0786028
141	0x3d91509a	0.07095452
142	0x3df3156e	0.11869322
143	0xbd3defd8	-0.04637131
144	0xbde0d8e5	-0.10978869
145	0xbd8b6abc	-0.06807467
146	0xbd33db8b	-0.043910544
147	0xbcd53c21	-0.026029648
148	0x3d6fe8df	0.058571693
149	0x3d246369	0.040133867
150	0xbdd08ae3	-0.101827405
151	0x3dfcab83	0.12337401
152	0xbc17f746	-0.009275263
153	0x3de920e2	0.11383225
154	0xbcf2f9a2	-0.02966005
155	0xbd1af1b3	-0.03782816
156	0x3dafa8ec	0.08577141
157	0x3a9339f8	0.0011232486
158	0xbdc193b7	-0.094520025
159	0xbd06c6bb	-0.032904368
160	0xbd9d1c69	-0.076714344
161	0x3d59e23c	0.05319427
162	0x3dde87ad	0.10865722
163	0x3dba88a3	0.09108093
164	0x3cd3e1ac	0.025864445
165	0x3de11cc2	0.10991813
166	0xbd954be4	-0.072898656
167	0xbd9abb0c	-0.075552076
168	0xbc128d18	-0.008944772
169	0xbdb139e6	-0.086536214
170	0xbe06a467	-0.13148652
171	0x3c8d766b	0.01726838
172	0x3cc37cc8	0.023863211
173	0xbcdcdf2b	-0.026961884
174	0x3d228d7d	0.039685715
175	0x3d56d517	0.052449312
176	0xbd15ac2e	-0.036541156
177	0x3d9573f5	0.07297508
178	0x3d924dfb	0.0714378
179	0x3be46852	0.0069704438
180	0xbd919b9a	-0.07109757
181	0xbda3caa8	-0.07997638
182	0x3cce34c4	0.025171645
183	0xbc3a7362	-0.0113800485
184	0x3dc82ab1	0.09773768
185	0xbd691b64	-0.056910887
186	0x3ccae725	0.024768421
187	0x3d8b20db	0.06793376
188	0xbdf9d372	-0.12198533
189	0x3db16c20	0.08663201
190	0xbdcda3d0	-0.100410104
191	0xbdbdbb15	-0.09264199
192	0x3d79600a	0.060882606
193	0xbcde67f9	-0.027149187
194	0x3dce7892	0.10081591
195	0x3e05243e	0.13002107
196	0x3cd209ef	0.025639502
197	0x3dfcc4a5	0.123421945
198	0xbd09a02e	-0.033600025
199	0x3c84b72e	0.016200628
200	0xbd16fb3e	-0.036860697
201	0x3d0f7c02	0.035030372
202	0xbd751282	-0.059832104
203	0xbdf93af3	-0.12169447
204	0xbd58030a	-0.052737273
205	0xbdbf97f9	-0.09355158
206	0xbde8f1e8	-0.11374265
207	0x3d98ac6b	0.07454761
208	0xbcb76848	-0.022388592
209	0x3d5e0399	0.05420265
210	0x3d805f1d	0.062681414
211	0x3d2830eb	0.041062277
212	0x3d1c35bd	0.038137186
213	0x3d17497c	0.036935315
214	0xbc17c1d3	-0.00926252
215	0xbdc278e2	-0.09495713
216	0x3db0d3a4	0.08634117
217	0xbcb997d5	-0.022655407
218	0x3d110b15	0.03541096
219	0x3da038f6	0.078233644
220	0xbb234e80	-0.0024918616
221	0x3dd2f7f6	0.10301201
222	0x3de21933	0.110399626
223	0x3dd88699	0.105725475
224	0x3d1fe37b	0.0390353
225	0x3dabb709	0.083845206
226	0xbdf17b35	-0.11791078
227	0x3ddf5ca9	0.109063454
228	0xbdeb2445	-0.11481527
229	0xbd2a2738	-0.04154131
230	0xbe01d83a	-0.1268014
231	0x3cf6f462	0.030145828
232	0x3c74a939	0.014932924
233	0x3b81cb7e	0.0039610257
234	0x3b5cfb4d	0.0033719123
235	0xbe0f92a1	-0.14020778
236	0xbd61358f	-0.054982718
237	0x3b3ff997	0.0029293054
238	0xbd44cc7f	-0.048046585
239	0x3df0d83c	0.117599934
240	0xbd361766	-0.04445591
241	0xbd0049bd	-0.031320322
242	0xbc8d991e	-0.017284926
243	0xbdba7272	-0.0910386
244	0x3dfa4c74	0.122216135
245	0xbdd6be24	-0.10485485
246	0xbdf38fad	-0.11892638
247	0xbb217b57	-0.0024640167
248	0x3da3751a	0.0798132
249	0x3d9cdb10	0.0765897
250	0x3d9148e4	0.07093981
251	0x3d31928c	0.04335265
252	0xbd9bd186	-0.07608323
253	0xbdc7605e	-0.097351775
254	0xbde95de8	-0.11394864
255	0xbd8764f4	-0.06611052

sequential/conv2d_1/Conv2D f4 [32, 3, 3, 32]
0	0xbdd8bc86	-0.10582833
1	0xbd3ec563	-0.04657496
2	0x3d24cb9a	0.040233232
3	0xbdc079ef	-0.09398257
4	0xbde4d068	-0.11172563
5	0xbd6c5105	-0.057694454
6	0xbd0138e0	-0.03154838
7	0x3d0e7214	0.034776762
8	0x3c7f4852	0.015581207
9	0x3b17e59f	0.0023177636
10	0xbc0aef83	-0.008479956
11	0x3d9cbf05	0.076536216
12	0x3d2ac00e	0.041687064
13	0xbcc74f92	-0.024329934
14	0x3c8c1ed0	0.017104536
15	0x3d925314	0.07144752
16	0x3dc46f8b	0.09591588
17	0xbd48018f	-0.04882961
18	0x3db4fab5	0.08836881
19	0xbd5b1fd6	-0.053497158
20	0x3c455347	0.012043781
21	0x3d8fec2d	0.07027469
22	0xbd24be3e	-0.04022049
23	0x3dba9827	0.09111052
24	0x3d77a79d	0.060462583
25	0x3cd3384b	0.025783679
26	0x3b8bd57c	0.0042673927
27	0x3c38aedd	0.011272159
28	0x3d151a10	0.03640181
29	0x3d9e7189	0.07736499
30	0xbce491c2	-0.027901534
31	0x3d4e5ebb	0.05038331
32	0x3cd1faa7	0.025632216
33	0xbda7e027	-0.081970505
34	0x3cef14a4	0.029184647
35	0xbcefe807	-0.029285444
36	0xbcb674a0	-0.022272408
37	0xbd2c7bbb	-0.042110186
38	0x3d46c39a	0.048526384
39	0xbd839fe2	-0.064269796
40	0xbd8c3313	-0.06845679
41	0xbd99f80f	-0.075180165
42	0xbd14c213	-0.036317896
43	0x3d8c4ff8	0.0685119
44	0x3cb89f8a	0.022537012
45	0x3d7e7857	0.062126484
46	0x3d245d21	0.040127877
47	0xbd1b4032	-0.03790302
48	0x3d54d75b	0.05196319
49	0xbc89c9eb	-0.016819915
50	0xbd3cc434	-0.04608555
51	0xbdc9cfa8	-0.098540604
52	0xbd9657ea	-0.07340987
53	0x3d846b49	0.064657755
54	0x3d448317	0.04797658
55	0xbd9050bf	-0.07046651
56	0x3de67afb	0.112539254
57	0x3d7afe01	0.061277393
58	0xbd8ff1d4	-0.07028547
59	0xbc1b02b0	-0.00946109
60	0x3cd91c5d	0.026502782
61	0x3c10d8f9	0.008840793
62	0xbc04ffce	-0.008117629
63	0x3dbb705a	0.09152289
64	0xbdc48300	-0.09595299
65	0x3d0af073	0.033920716
66	0x3b9f272c	0.0048569646
67	0xbd38e577	-0.04514071
68	0xbdd78ef3	-0.10525312
69	0xbd120f75	-0.035659272
70	0x3db61b41	0.08891917
71	0x3db1af63	0.086760305
72	0x3c1c3314	0.009533662
73	0x3c43d045	0.011951511
74	0xbd48558f	-0.04890972
75	0xbda6c488	-0.08142954
76	0xbd9c62a2	-0.07636
77	0x3d3f49aa	0.04670111
78	0xbd5775c1	-0.052602533
79	0xbd8e3b56	-0.06944911
80	0xbd9ef871	-0.0776223
81	0xbdc36fc3	-0.09542801
82	0x3d618067	0.055054095
83	0xbd55a2b4	-0.05215712
84	0xbd100819	-0.035163973
85	0x3db542ec	0.08850655
86	0x3d087358	0.033313125
87	0x3c0ee30e	0.008721126
88	0x3dc08ebf	0.09402227
89	0x3cd65f67	0.026168538
90	0x3c6bc077	0.014389149
91	0x3ca62e77	0.020285828
92	0xbcbe9dde	-0.023268636
93	0x3cff8f0a	0.031196136
94	0x3af446b8	0.0018636798
95	0x398c277c	0.000267323
96	0xbd02b518	-0.031910986
97	0x3da96832	0.08271827
98	0xbde6b000	-0.11264038
99	0xbd9fcbea	-0.078025654
100	0xbbf0ef7b	-0.007352767
101	0xbdad999f	-0.084765665
102	0x3c999aae	0.018750515
103	0xbd73c4ce	-0.05951386
104	0xbd81c860	-0.063370466
105	0xbdbc7351	-0.09201682
106	0xbdd8e005	-0.10589603
107	0xbda7d64d	-0.081951715
108	0x3db6e42d	0.0893024
109	0x3d148ca9	0.036266956
110	0x3d1b5539	0.03792307
111	0xbdaab0e2	-0.08334519
112	0x3dc6a03e	0.096985325
113	0x3c7847b0	0.01515381
114	0x3c1a957e	0.009435056
115	0x3d9636a4	0.073346406
116	0xbd974e13	-0.07387938
117	0x3d06e05e	0.032928817
118	0xbca95b5a	-0.020673443
119	0x3dcbdca8	0.09954196
120	0xbd43549c	-0.04768811
121	0xbb97637c	-0.0046200138
122	0xbc365fee	-0.01113127
123	0x3c25f34d	0.010128808
124	0x3d9a1acc	0.07524642
125	0x3c967324	0.01836545
126	0x3d9460f4	0.07245055
127	0xbd1fbac6	-0.03899648
128	0xbd9e1c25	-0.07720212
129	0x3cf913d5	0.030404964
130	0x3da01299	0.07816047
131	0x3c25d379	0.01012122
132	0xbd8616a0	-0.06547284
133	0x3c394b31	0.011309431
134	0xbc84dc0e	-0.016218212
135	0x3d8f5572	0.06998719
136	0xbac276d9	-0.0014836445
137	0x3d3a06ab	0.045416515
138	0xbcde5781	-0.027141334
139	0x3db61455	0.08890597
140	0x3dae12e1	0.084996946
141	0x3d6efffa	0.058349587
142	0x3d83e200	0.064395905
143	0xbc3d4350	-0.011551693
144	0xbd7d6b1b	-0.06186972
145	0xbca96c4c	-0.020681523
146	0x3d46c55a	0.048528053
147	0x3db465d5	0.088084854
148	0x3d3f3503	0.046681415
149	0xbc991ea0	-0.018691361
150	0xbdb9276f	-0.090407245
151	0xbb82861f	-0.0039832736
152	0x3d9c94b9	0.07645554
153	0x3da8ea8f	0.082478635
154	0x3d40b187	0.047044303
155	0x3c93cf7c	0.018043272
156	0x3c58341d	0.0131960185
157	0xbd636c7d	-0.055523384
158	0xbd6fe2c1	-0.05856586
159	0x3da9cad5	0.0829064
160	0xbd56366f	-0.052298006
161	0x3cdc5b85	0.026899109
162	0xbdd2090b	-0.10255631
163	0x3d83f421	0.06443048
164	0xbcebdcf2	-0.028791878
165	0xbd9204d9	-0.07129831
166	0xbd301f62	-0.04299868
167	0xbc8e7732	-0.017390821
168	0x3da39575	0.07987491
169	0xbdcd9da4	-0.10039833
170	0xbcc386ce	-0.02386799
171	0x3dd7f596	0.10544889
172	0x3cea32dd	0.028588707
173	0x3d3b2188	0.045686275
174	0xbcb365f7	-0.021899207
175	0xbc7cdba8	-0.0154332295
176	0xbb875832	-0.0041303867
177	0x3d0ed028	0.034866482
178	0xbbd2ebbb	-0.0064367927
179	0xbcb80a58	-0.02246587
180	0xbd9ce921	-0.07661653
181	0x3d2fece2	0.04295052
182	0x3dbc60b7	0.091981344
183	0x3d059388	0.0326114
184	0xbd65de6c	-0.05612032
185	0xbd9f11f5	-0.07767097
186	0xbd78ad51	-0.060712162
187	0xbd9c7f94	-0.07641521
188	0x3d8e8ced	0.06960473
189	0x3ca1977c	0.019725554
190	0x3ab60174	0.0013885931
191	0x3d4676a5	0.048452992
192	0xbccddf0a	-0.025130767
193	0xbd05cf0d	-0.032668162
194	0xbc7c22e5	-0.015389179
195	0xb9aa391d	-0.0003246748
196	0x3b0d91bc	0.0021601757
197	0xbcf21230	-0.029549688
198	0x3d8bb99d	0.06822512
199	0xbd553691	-0.05205399
200	0x3d30aab3	0.04313154
201	0xbdce481b	-0.10072347
202	0xbd5eed83	-0.054425728
203	0xbd7dbf2b	-0.06194989
204	0x3dd873b8	0.105689466
205	0x3d38da5a	0.04513011
206	0xbd28f55a	-0.04124961
207	0xbcd6fd2c	-0.026243769
208	0xbdb4839b	-0.08814164
209	0x3d77f1fb	0.060533505
210	0x3d4f7534	0.050648883
211	0xbd9304d6	-0.07178657
212	0xbd1f426b	-0.0388817
213	0xbc7df868	-0.015501119
214	0xbc53b35b	-0.01292118
215	0xbd8b4c3e	-0.068016514
216	0xbd93303c	-0.07186934
217	0xbcb73e80	-0.02236867
218	0xbdc2c006	-0.09509282
219	0x3d427019	0.047470186
220	0xbd1d2efe	-0.038374893
221	0x3dc3bba3	0.09557273
222	0x3d1ac710	0.037787497
223	0x3d6042be	0.05475115
224	0x3dbf074a	0.09327562
225	0x3d3ee6f0	0.046606958
226	0xbda8878e	-0.0822898
227	0xbc86fc25	-0.016477654
228	0xbda9f9c7	-0.08299594
229	0xbda6ae79	-0.08138747
230	0xbdcf2432	-0.101143256
231	0xbd9f5b00	-0.07781029
232	0x3d1e57bc	0.03865789
233	0xbd3f4b52	-0.04670269
234	0x3d4b1185	0.049577255
235	0xbd51bb57	-0.05120405
236	0xbcf3d862	-0.029766265
237	0x3d9a46cc	0.07533035
238	0x3cf12c7a	0.029440153
239	0xbd8cf419	-0.068824954
240	0x3d97ccef	0.07412135
241	0x3ddb860b	0.10718926
242	0x3dbeeeba	0.09322877
243	0x3d6b50e9	0.05745021
244	0x3ddcc9f0	0.10780704
245	0x3d163779	0.036673997
246	0xbd11ce8a	-0.03559736
247	0x3dee6c81	0.11641789
248	0x3d83dddd	0.064388014
249	0x3d9ac1a8	0.07556468
250	0xbb7c0658	-0.003845593
251	0x3cf34efd	0.02970075
252	0x3d95422e	0.072880134
253	0xbda8469d	-0.082165934
254	0x3c9f810f	0.01947072
255	0x3a887d4c	0.0010413318

sequential/conv2d_2/Conv2D f4 [32, 3, 3, 32]
0	0x3c606468	0.013695814
1	0x3c0d06ec	0.008607607
2	0x3db1325d	0.08652184
3	0xbc45aa50	-0.012064531
4	0x3d96adf6	0.07357399
5	0x3d055c69	0.032558832
6	0x3c30aacd	0.01078291
7	0x3d8746df	0.066053145
8	0x3dcba01c	0.09942648
9	0x3d4c44a3	0.049870145
10	0xbdb570e6	-0.08859424
11	0xbddebc4e	-0.1087576
12	0xbcc8a629	-0.024493294
13	0xbddade9e	-0.10686992
14	0xbdd92ad7	-0.10603874
15	0x3d6111de	0.05494868
16	0x3ca481b0	0.020081371
17	0x3d190588	0.03735879
18	0xbd12a5b0	-0.035802543
19	0xbdb518a2	-0.08842589
20	0xbdadfdb6	-0.08495657
21	0xbdc85bd3	-0.09783139
22	0x3cf312c9	0.029672043
23	0x3d60f1d0	0.05491811
24	0x3dacad93	0.08431544
25	0x3d0065c2	0.031347044
26	0xbcaf7501	-0.021418096
27	0xbdc51a88	-0.09624201
28	0x3d87b5bd	0.06626461
29	0xbda5c478	-0.08094114
30	0x3dc5b465	0.09653548
31	0xbd3dbab0	-0.046320617
32	0x3d8dc1ae	0.06921707
33	0x3dc1874b	0.09449633
34	0xbd4391f0	-0.0477466
35	0x3c01e4b3	0.007928061
36	0xbd8e530c	-0.06949434
37	0x3cd55c94	0.026045121
38	0xbbcf8545	-0.0063330256
39	0x3d9e7364	0.07736853
40	0xbd6be7dc	-0.057594165
41	0xbd691079	-0.056900475
42	0xbd848f16	-0.06472604
43	0x3c87b02a	0.016563494
44	0xbc6a8db9	-0.014316016
45	0x3db589ce	0.08864175
46	0x3d4553d0	0.048175633
47	0xbc709b0b	-0.014685403
48	0xbdaf80c1	-0.0856948
49	0x3d089e9f	0.033354398
50	0x3c2b33cf	0.010449364
51	0x3d666881	0.056252006
52	0xbba1ca03	-0.0049374118
53	0x3db0c426	0.08631162
54	0xbdae7318	-0.08518046
55	0xbd1dc8dc	-0.038521633
56	0x3da1eb4a	0.07906206
57	0xbd1f200e	-0.03884893
58	0xbda4228a	-0.080144
59	0xbcd1791d	-0.025570447
60	0x3c87f731	0.016597362
61	0xbdddfe65	-0.108395375
62	0x3d5effba	0.0544431
63	0xbc7eba3b	-0.0155473305
64	0xbda4736d	-0.08029828
65	0xbc5e1e52	-0.013557034
66	0xbd50d31e	-0.050982587
67	0x3dc17f6c	0.09448132
68	0x3d5342ca	0.051577367
69	0x3cf68bf8	0.03009604
70	0x3d761add	0.060084213
71	0x3c7d8e35	0.015475799
72	0xbce2b3de	-0.027673658
73	0x3d956312	0.07294287
74	0x3dccb4b4	0.09995404
75	0x3da25f9f	0.079283945
76	0xbc51a39b	-0.012795354
77	0xbdbca9de	-0.09212087
78	0xbc44cfc3	-0.012012425
79	0xbda2a2f5	-0.07941238
80	0xbcd41dd4	-0.02589313
81	0x3d08836a	0.03332845
82	0xba1932b7	-0.0005844044
83	0xbcc33413	-0.023828542
84	0xbdbc2160	-0.09186053
85	0x3d5135ee	0.051076822
86	0x3d5661ce	0.052339368
87	0x3d185174	0.037187055
88	0xbd3e08c3	-0.046395075
89	0xbd587b2b	-0.052851837
90	0xbd19154e	-0.037373833
91	0xbd6625bd	-0.056188334
92	0x3e025eb2	0.12731436
93	0x3d8185c2	0.063243404
94	0xbd8f9a4e	-0.07011853
95	0xbccca779	-0.024982201
96	0x3c99fa46	0.018796097
97	0xbd6ea11b	-0.05825911
98	0xbdc02c05	-0.09383396
99	0xbdaf2ac3	-0.08553078
100	0x3cc7b3f2	0.024377797
101	0xbdac0b74	-0.08400622
102	0x3c84ed0e	0.016226318
103	0xbc20395d	-0.0097793015
104	0x3cf74545	0.030184397
105	0xbd55b55c	-0.05217491
106	0xbd85ce9e	-0.0653355
107	0x3c1102c9	0.008850762
108	0x3d9dc079	0.07702727
109	0x3da504ca	0.08057554
110	0x3d7bec44	0.061504617
111	0x3cbae87c	0.022815935
112	0x3d5cc20f	0.053896006
113	0x3d1c8492	0.038212366
114	0x3ce63f77	0.028106434
115	0xbc6464a6	-0.013940012
116	0xbdb70607	-0.089366965
117	0xbd1ea05f	-0.03872716
118	0x3b5a965d	0.0033353784
119	0x3ca37f5b	0.019958189
120	0xbd72234c	-0.059115693
121	0xbd2128d4	-0.039345577
122	0xbdb6a9a5	-0.08919076
123	0x3d431c65	0.0476345
124	0xbcc85206	-0.024453174
125	0xbd96893e	-0.073503956
126	0x3c1b6f3a	0.009486968
127	0xbdf0c101	-0.117555626
128	0x3cdcc606	0.026949894
129	0x3da510d0	0.08059847
130	0xbd2bf2ff	-0.041979786
131	0x3cf603b6	0.030031066
132	0x3c0e02a2	0.00866762
133	0x3d172a4e	0.03690558
134	0xbd47fe2d	-0.048826385
135	0x3d22a4e9	0.03970805
136	0x3dba9eff	0.09112357
137	0xbdae1bf9	-0.08501429
138	0x3b4b5869	0.0031028038
139	0xbddf6208	-0.1090737
140	0x3db09f58	0.086241424
141	0x3caeb37c	0.02132582
142	0x3c488a84	0.012240056
143	0x3d50d8a6	0.050987862
144	0xbd324ece	-0.043532185
145	0x3c72f9a7	0.01483003
146	0xbd6314d9	-0.055439804
147	0xbdd62550	-0.104563355
148	0x3d6b797c	0.057488903
149	0xbdbdf1cc	-0.09274635
150	0x3bd138cf	0.006384946
151	0xbdcbf993	-0.09959712
152	0xbdc4edb5	-0.096156515
153	0xbd8c5ca1	-0.06853605
154	0x3c5ecc48	0.013598509
155	0x3b833332	0.0040039057
156	0x3d604891	0.054756705
157	0x3d3b7525	0.045766015
158	0xbd39ffc7	-0.045409944
159	0xbd126246	-0.035738252
160	0x3d1b4aff	0.03791332
161	0xbc90f645	-0.017695555
162	0x3d8bd09b	0.06826898
163	0x3d734807	0.059394863
164	0xbd4f0017	-0.050537195
165	0xbcd52740	-0.026019692
166	0xbde9ad8d	-0.11410055
167	0x3c8dcf2f	0.017310707
168	0xbcd03ed7	-0.02542059
169	0xbde14383	-0.10999205
170	0x3d2fb4c8	0.042897016
171	0x3da53195	0.08066098
172	0x3dc76bf3	0.097373866
173	0x3c843ff6	0.01614378
174	0x3d608ec8	0.054823667
175	0xbdd302c1	-0.1030326
176	0x3b9f9b8a	0.0048708366
177	0x3c2c49be	0.010515628
178	0x3b0fbd40	0.002193287
179	0xbdc3d123	-0.09561374
180	0x3dba64e6	0.09101276
181	0xbd6c17d7	-0.057639923
182	0x3d0e3a75	0.034723718
183	0xbd644321	-0.05572808
184	0xbdc1e369	-0.09467203
185	0x3d03c053	0.032165837
186	0x3bf6d737	0.00753298
187	0xbdb60c7c	-0.088891
188	0x3da1fe0f	0.07909786
189	0xbdd5d2e0	-0.10440612
190	0xbd920f24	-0.07131794
191	0xbd865c77	-0.06560605
192	0xbcc69eb9	-0.024245607
193	0xbd9efb1f	-0.07762741
194	0xbdbf849a	-0.093514636
195	0x3c805581	0.015665771
196	0x3c6267c4	0.013818685
197	0xbc6e23aa	-0.01453487
198	0x3d6947b6	0.056953155
199	0xbdd291ae	-0.102816924
200	0xbd1197ec	-0.035545275
201	0x3d2732f0	0.040820062
202	0x3d735079	0.059402917
203	0xbd97d136	-0.07412951
204	0x3d37d286	0.044878505
205	0x3d07052c	0.032963917
206	0xbda5bced	-0.08092675
207	0xbdc5e5d4	-0.09662977
208	0xbd696ed5	-0.056990463
209	0x3d1c81d8	0.038209766
210	0x3cde84c6	0.02716292
211	0x3c9b978d	0.018993163
212	0x392f5de0	0.00016724272
213	0xbdd35f27	-0.10320883
214	0xbd848f65	-0.06472663
215	0x3c1b76c9	0.00948877
216	0xbd916f47	-0.071013026
217	0xbd342b3e	-0.04398655
218	0x3bb306f9	0.0054634777
219	0xbd9eb09b	-0.077485286
220	0x3dc6d56d	0.097086765
221	0x3d9b3be8	0.075797856
222	0x3b855c52	0.0040698433
223	0xbdd09d87	-0.10186296
224	0xbd0db87e	-0.034599774
225	0x3d2ed809	0.042686496
226	0x3cf5e228	0.030015066
227	0x3bf7e454	0.0075650606
228	0xbc17af50	-0.009258106
229	0x3d4ddbd2	0.050258465
230	0x3cce7d26	0.02520616
231	0x3bd30b87	0.006440583
232	0xbd953295	-0.072850384
233	0xbd48e047	-0.049042013
234	0xbc6da9e7	-0.01450584
235	0x3d6d7f62	0.05798281
236	0x3da3e421	0.080024965
237	0x3dd2de55	0.10296313
238	0x3d9f3aab	0.07774862
239	0x3d352431	0.044223968
240	0xbd5f6434	-0.05453892
241	0x3d01596b	0.031579416
242	0xbc532650	-0.012887552
243	0xbd29de7f	-0.041471954
244	0x3d607055	0.05479463
245	0x3c15a4a6	0.0091334935
246	0x3c4cb8d5	0.012495239
247	0x3d8e67c5	0.06953386
248	0xbd5d05da	-0.05396066
249	0x3d51742e	0.05113619
250	0x3d83092b	0.06398233
251	0x3d0d0e7e	0.03443765
252	0xbdad6817	-0.08467119
253	0x3d043865	0.032280345
254	0x3d6589c4	0.056039587
255	0x3d1e7259	0.03868327
